…
    "kernel_dim":	4,
    "kernel_size":	5,
    "lam":	0.97,
    "log_data_dir":	"/home/girigiri-linux/Project/RL4Sys/examples/maze-game/./logs/",
    "logger_kwargs":	{
        "exp_name":	"rl4sys-ppo-info",
        "output_dir":	"/home/girigiri-linux/Project/RL4Sys/examples/maze-game/./logs/rl4sys-ppo-info/rl4sys-ppo-info_s261060000"
    },
    "pi_lr":	0.0003,
    "seed":	261060000,
    "self":	{
        "<algorithms.PPO.PPO.PPO object at 0x75bd48dab040>":	{
            "_clip_ratio":	0.1,
            "_model":	{
                "RLActorCritic(\n  (pi): RLActor(\n    (pi_network): Sequential(\n      (0): Linear(in_features=20, out_features=32, bias=True)\n      (1): ReLU()\n      (2): Linear(in_features=32, out_features=16, bias=True)\n      (3): ReLU()\n      (4): Linear(in_features=16, out_features=8, bias=True)\n      (5): ReLU()\n      (6): Linear(in_features=8, out_features=4, bias=True)\n    )\n  )\n  (v): RLCritic(\n    (v_net): Sequential(\n      (0): Linear(in_features=20, out_features=32, bias=True)\n      (1): ReLU()\n      (2): Linear(in_features=32, out_features=16, bias=True)\n      (3): ReLU()\n      (4): Linear(in_features=16, out_features=8, bias=True)\n      (5): ReLU()\n      (6): Linear(in_features=8, out_features=1, bias=True)\n      (7): Identity()\n    )\n  )\n)":	{
                    "_backward_hooks":	{},
                    "_backward_pre_hooks":	{},
                    "_buffers":	{},
                    "_forward_hooks":	{},
                    "_forward_hooks_always_called":	{},
                    "_forward_hooks_with_kwargs":	{},
                    "_forward_pre_hooks":	{},
                    "_forward_pre_hooks_with_kwargs":	{},
                    "_is_full_backward_hook":	null,
                    "_load_state_dict_post_hooks":	{},
                    "_load_state_dict_pre_hooks":	{},
                    "_modules":	{
                        "pi":	{
                            "RLActor(\n  (pi_network): Sequential(\n    (0): Linear(in_features=20, out_features=32, bias=True)\n    (1): ReLU()\n    (2): Linear(in_features=32, out_features=16, bias=True)\n    (3): ReLU()\n    (4): Linear(in_features=16, out_features=8, bias=True)\n    (5): ReLU()\n    (6): Linear(in_features=8, out_features=4, bias=True)\n  )\n)":	{
                                "_backward_hooks":	{},
                                "_backward_pre_hooks":	{},
                                "_buffers":	{},
                                "_forward_hooks":	{},
                                "_forward_hooks_always_called":	{},
                                "_forward_hooks_with_kwargs":	{},
                                "_forward_pre_hooks":	{},
                                "_forward_pre_hooks_with_kwargs":	{},
                                "_is_full_backward_hook":	null,
                                "_load_state_dict_post_hooks":	{},
                                "_load_state_dict_pre_hooks":	{},
                                "_modules":	{
                                    "pi_network":	{
                                        "Sequential(\n  (0): Linear(in_features=20, out_features=32, bias=True)\n  (1): ReLU()\n  (2): Linear(in_features=32, out_features=16, bias=True)\n  (3): ReLU()\n  (4): Linear(in_features=16, out_features=8, bias=True)\n  (5): ReLU()\n  (6): Linear(in_features=8, out_features=4, bias=True)\n)":	{
                                            "_backward_hooks":	{},
                                            "_backward_pre_hooks":	{},
                                            "_buffers":	{},
                                            "_forward_hooks":	{},
                                            "_forward_hooks_always_called":	{},
                                            "_forward_hooks_with_kwargs":	{},
…
