…
    "gamma":	0.99,
    "kernel_dim":	8,
    "kernel_size":	128,
    "lam":	0.97,
    "log_data_dir":	"/home/jeffw/stuff/RL4Sys/New/examples/job-scheduling/./logs/",
    "logger_kwargs":	{
        "exp_name":	"rl4sys-ppo-scheduler",
        "output_dir":	"/home/jeffw/stuff/RL4Sys/New/examples/job-scheduling/./logs/rl4sys-ppo-scheduler/rl4sys-ppo-scheduler_s3386420000"
    },
    "pi_lr":	0.0003,
    "seed":	3386420000,
    "self":	{
        "<algorithms.PPO.PPO.PPO object at 0x7fc83945dcc0>":	{
            "_clip_ratio":	0.2,
            "_model":	{
                "RLActorCritic(\n  (pi): RLActor(\n    (dense1): Linear(in_features=8, out_features=32, bias=True)\n    (dense2): Linear(in_features=32, out_features=16, bias=True)\n    (dense3): Linear(in_features=16, out_features=8, bias=True)\n    (dense4): Linear(in_features=8, out_features=1, bias=True)\n  )\n  (v): RLCritic(\n    (v_net): Sequential(\n      (0): Linear(in_features=1024, out_features=32, bias=True)\n      (1): ReLU()\n      (2): Linear(in_features=32, out_features=16, bias=True)\n      (3): ReLU()\n      (4): Linear(in_features=16, out_features=8, bias=True)\n      (5): ReLU()\n      (6): Linear(in_features=8, out_features=1, bias=True)\n      (7): Identity()\n    )\n  )\n)":	{
                    "_backward_hooks":	{},
                    "_buffers":	{},
                    "_forward_hooks":	{},
                    "_forward_pre_hooks":	{},
                    "_is_full_backward_hook":	null,
                    "_load_state_dict_pre_hooks":	{},
                    "_modules":	{
                        "pi":	{
                            "RLActor(\n  (dense1): Linear(in_features=8, out_features=32, bias=True)\n  (dense2): Linear(in_features=32, out_features=16, bias=True)\n  (dense3): Linear(in_features=16, out_features=8, bias=True)\n  (dense4): Linear(in_features=8, out_features=1, bias=True)\n)":	{
                                "_backward_hooks":	{},
                                "_buffers":	{},
                                "_forward_hooks":	{},
                                "_forward_pre_hooks":	{},
                                "_is_full_backward_hook":	null,
                                "_load_state_dict_pre_hooks":	{},
                                "_modules":	{
…
                                        }
                                    }
                                },
                                "_non_persistent_buffers_set":	"set()",
                                "_parameters":	{},
                                "_state_dict_hooks":	{},
                                "kernel_dim":	8,
                                "kernel_size":	128,
                                "training":	true
                            }
                        },
                        "v":	{
                            "RLCritic(\n  (v_net): Sequential(\n    (0): Linear(in_features=1024, out_features=32, bias=True)\n    (1): ReLU()\n    (2): Linear(in_features=32, out_features=16, bias=True)\n    (3): ReLU()\n    (4): Linear(in_features=16, out_features=8, bias=True)\n    (5): ReLU()\n    (6): Linear(in_features=8, out_features=1, bias=True)\n    (7): Identity()\n  )\n)":	{
                                "_backward_hooks":	{},
                                "_buffers":	{},
                                "_forward_hooks":	{},
                                "_forward_pre_hooks":	{},
                                "_is_full_backward_hook":	null,
                                "_load_state_dict_pre_hooks":	{},
                                "_modules":	{
                                    "v_net":	{
                                        "Sequential(\n  (0): Linear(in_features=1024, out_features=32, bias=True)\n  (1): ReLU()\n  (2): Linear(in_features=32, out_features=16, bias=True)\n  (3): ReLU()\n  (4): Linear(in_features=16, out_features=8, bias=True)\n  (5): ReLU()\n  (6): Linear(in_features=8, out_features=1, bias=True)\n  (7): Identity()\n)":	{
                                            "_backward_hooks":	{},
                                            "_buffers":	{},
                                            "_forward_hooks":	{},
                                            "_forward_pre_hooks":	{},
                                            "_is_full_backward_hook":	null,
…
