…
        "output_dir":	"/home/tybg/Documents/GitHub/RL4Sys/examples/lunar/./logs/rl4sys-dqn-info/rl4sys-dqn-info_s176940000"
    },
    "q_lr":	0.0005,
    "seed":	176940000,
    "self":	{
        "<algorithms.DQN.DQN.DQN object at 0x7c1fd6c26ed0>":	{
            "_act_dim":	1,
            "_batch_size":	32,
            "_buf_size":	50000,
            "_epsilon":	1.0,
            "_epsilon_decay":	0.001,
            "_epsilon_min":	0.01,
            "_gamma":	0.95,
            "_kernel_dim":	4,
            "_kernel_size":	2,
            "_model":	{
                "DeepQNetwork(\n  (q_network): Sequential(\n    (0): Linear(in_features=8, out_features=64, bias=True)\n    (1): ReLU()\n    (2): Linear(in_features=64, out_features=64, bias=True)\n    (3): ReLU()\n    (4): Linear(in_features=64, out_features=32, bias=True)\n    (5): ReLU()\n    (6): Linear(in_features=32, out_features=16, bias=True)\n    (7): ReLU()\n    (8): Linear(in_features=16, out_features=8, bias=True)\n    (9): ReLU()\n    (10): Linear(in_features=8, out_features=1, bias=True)\n  )\n)":	{
                    "_backward_hooks":	{},
                    "_backward_pre_hooks":	{},
                    "_buffers":	{},
                    "_epsilon":	1.0,
                    "_epsilon_decay":	0.001,
                    "_epsilon_min":	0.01,
                    "_forward_hooks":	{},
                    "_forward_hooks_always_called":	{},
                    "_forward_hooks_with_kwargs":	{},
                    "_forward_pre_hooks":	{},
                    "_forward_pre_hooks_with_kwargs":	{},
                    "_is_full_backward_hook":	null,
                    "_load_state_dict_post_hooks":	{},
                    "_load_state_dict_pre_hooks":	{},
                    "_modules":	{
                        "q_network":	{
                            "Sequential(\n  (0): Linear(in_features=8, out_features=64, bias=True)\n  (1): ReLU()\n  (2): Linear(in_features=64, out_features=64, bias=True)\n  (3): ReLU()\n  (4): Linear(in_features=64, out_features=32, bias=True)\n  (5): ReLU()\n  (6): Linear(in_features=32, out_features=16, bias=True)\n  (7): ReLU()\n  (8): Linear(in_features=16, out_features=8, bias=True)\n  (9): ReLU()\n  (10): Linear(in_features=8, out_features=1, bias=True)\n)":	{
                                "_backward_hooks":	{},
                                "_backward_pre_hooks":	{},
                                "_buffers":	{},
                                "_forward_hooks":	{},
                                "_forward_hooks_always_called":	{},
                                "_forward_hooks_with_kwargs":	{},
                                "_forward_pre_hooks":	{},
…
